model/mlp_model1.pth (torch, 20459 bytes, 9 tensors)

fc1.weight f4 [64, 21]
00000000: 2000 d13e bdf1 863f 65e2 8d40 abf4 f7bd
00000010: 582e ce3e 776a ce40 5148 fdbe 6b2c fe3e
00000020: bac4 a240 6487 ecbb c71c dac1 3828 d940
00000030: 48bd efbe 01a9 cd3f 1bf7 2141 bf30 3240
00000040: 1a00 3b3f 66c1 a540 5dbb 0c40 7508 f940
00000050: 6191 8e3e 28b3 8a3b f129 27be 4871 2abf
00000060: 7fec 50bd 63f3 50bd 0f9e 57be 4f79 a93b
00000070: e462 16bd c062 37bf 0351 b3bc 7caf 86bf
00000080: a8d3 1cbe 36d9 213e 8db5 a13d a77a 34be
00000090: ffc4 08bf c295 21bf ad59 23be 191f 8d3c
000000a0: 6863 77be 2f71 b1bc 22d3 bac1 17e4 1840
000000b0: dba4 9cc1 1605 f7bf 32ed 913d bb19 0bc2
000000c0: 9fd2 85c1 05ac d43e 3f6c a1c1 261d 4f3e
000000d0: 9dfb a6be 6abb e3c1 adcd 7dc1 373e d5c1
000000e0: 07eb 35c2 f76d e1bf 3fed ad3e cb1f 0fc2
000000f0: 9a51 c0c1 d0e1 f3c1 3652 56c0 eae2 1a3e
00000100: a69c cbc1 15c7 52bf 62f7 a43d 72d0 23c0
00000110: 3e55 a0be 125f 15be cc1e 99c1 b609 15c0
00000120: 6633 9bc0 0819 1ec0 86fc 283f 5b1b 853e
00000130: 4c7a 033f 4cfe 4240 c671 78c2 a9bb d6bf
00000140: c7e4 ad3f 5337 253f 0c29 5840 c901 49bd
00000150: 6be6 a5bf 7b4a 9bbe 2665 e7c0 9c40 48bb
00000160: 88f8 e7bd 4f08 32be f905 9ebf 135a 27be
00000170: 74eb a3c0 8786 45bd 26fd 0f3e 86a7 42bf
00000180: b91c 1341 2499 0dc0 da2e e340 170c d3be
00000190: 5e0d 0ac0 f22f 80c0 c06f 8cc0 4577 81c0
000001a0: 69ba 1bbe 921f 0640 73f7 28be a8aa bbc0
000001b0: f623 b23e d696 c2bd fa8a 0cc0 9a69 3240
000001c0: 6dfd e8bd f2dc 96c0 a82e c63d 2184 3ec1
000001d0: 66b2 2ec0 a50a 2940 ca9f 9e3f 156b 1fc1
000001e0: fcc1 25bf a10f 7bbe f816 82c0 3e05 023f
000001f0: f2ec 0bc0 bb28 963f 1115 00bf 5428 a83e
00000200: 6804 98bf 62db c03c 1005 9e3d ff1e 04c0
00000210: bddd a63f a86b 9bc1 bee9 12c0 7612 07c1
00000220: 16d1 4cc0 89a0 19bd 893b 6e3f 6496 c7bc
00000230: 062c 24bf e768 a53e 7d07 dbbf ebe7 51c0
00000240: 77bc a13e 14aa 97c0 7f75 edbe 93bb d0c1
00000250: 11f9 5340 8971 b1c1 2a0e 1fc0 46f4 353e
00000260: 764d 12c2 3141 a3c1 47a3 a73e dbc4 8ec1
00000270: 9d23 643e e55f c8be 682d 0dc2 06f3 99c1
00000280: 3c69 00c2 ae29 4ec2 07a5 2ebf 04e4 5e3f
00000290: 32f7 1fc2 c0ad 02c2 b7e5 1ac2 b856 e1c0
000002a0: 8578 d8bf 6799 2240 aea3 1e41 5c7e d2be
000002b0: df2e 6d3f 94fb 38c0 2f16 3ec0 6314 8d3f
000002c0: a6da da40 7adb 80bd c80b e43e aca3 a8c0
000002d0: 115a 1cc0 e969 9dc0 e2a5 4dc0 98b1 a940
000002e0: b89b 8b3f e6c1 aac0 2a57 12c0 8a6f b4c0
000002f0: 28d4 71be 0850 8a3e 9e81 60c1 f14b ccbe
00000300: a685 07c1 e3d1 c1bf 0211 153f 3510 acbe
00000310: eacc 68c0 d963 d73e 9d3f d1c0 7c08 3ebf
00000320: b1a5 913f 9f92 d33e d483 263e 1e75 93be
00000330: de4a 14c2 ff12 e3be 5199 3e3f 9bdb 863f
00000340: c2e0 7cbf a04c 22bd 09ae 28c0 4d7e 16bf
00000350: ca4b 80c0 382f 18be b049 b4be 941b d9c0
00000360: b97d b5bf bde6 d2be 4a5c 14c0 7792 d0bf
00000370: a0bc dfbe b3a5 b6c0 8aa8 0ec0 ceae 5dc0
00000380: 7882 4dc1 c8d9 debf ca4f d9be 4dca 09c1
00000390: 0a0b 52c0 5172 f0c0 f67e 90bf 63ff 46be
000003a0: 2727 19bf 4205 5bc0 98d8 cb3d 5619 82c0
000003b0: fb7f 2dc0 1ae3 803f 99ab 05be ac56 50c0
000003c0: ce5c fdc1 38ed bcbc 4288 aec0 4c32 463f
000003d0: 9e17 0cbf cb34 4ec1 3d2a aebe 52f4 52be
000003e0: a340 cabf 02a8 20c0 94ee 2cc0 80b8 62be
000003f0: 929f ab3f 52b4 a6c2 c185 55bf bb7c da3d
0.40820408 1.0542523 4.433886 -0.121072136 0.40269732 6.450496 -0.49469236 0.49643263
5.0865145 -0.0072182883 -27.264051 6.7861595 -0.46824098 1.6067201 10.1228285 2.7842252
0.7304703 5.179858 2.1989357 7.7822824 0.2784529 0.004232783 -0.16324593 -0.66579103
-0.05100679 -0.05101336 -0.21056388 0.005171932 -0.036715403 -0.71635056 -0.021889215 -1.0522304
-0.15315115 0.15805516 0.07895956 -0.17624913 -0.5342559 -0.6311914 -0.15952177 0.017226743
-0.24159014 -0.021660415 -23.353092 2.3889215 -19.580496 -1.9298427 0.071253195 -34.775127
-16.727842 0.4153749 -20.177855 0.20225963 -0.3261384 -28.46651 -15.862714 -26.655378
-45.47952 -1.7611684 0.33970067 -35.781048 -24.039845 -30.48526 -3.3487678 0.15125623
-25.451488 -0.82335025 0.08054997 -2.5595975 -0.31315035 -0.14587048 -19.140038 -2.3287177
-4.850024 -2.4702778 0.6601032 0.25997433 0.51358485 3.046771 -62.111107 -1.6776019
1.3585442 0.64537543 3.3775053 -0.049073968 -1.2960943 -0.30330262 -7.231097 -0.0030556088
-0.113267004 -0.17385982 -1.2345573 -0.16342954 -5.122492 -0.048224 0.14061412 -0.7603687
9.194512 -2.212472 7.099469 -0.4122016 -2.1570659 -4.0058527 -4.3886414 -4.0458093
-0.15207829 2.095677 -0.16500644 -5.864582 0.3479306 -0.09501426 -2.1959825 2.7876954
-0.11376462 -4.714471 0.09676868 -11.907258 -2.7296386 2.6412747 1.2392514 -9.963643
-0.6474912 -0.2451768 -4.065304 0.5078925 -2.186337 1.173118 -0.50032145 0.32843268
-1.1876345 0.02354211 0.07715809 -2.0643919 1.3036419 -19.427567 -2.2955165 -8.442007
-3.2002616 -0.037506614 0.93059593 -0.024363704 -0.64129674 0.32306597 -1.711166 -3.2797801
0.315891 -4.7395115 -0.46378705 -26.091589 3.3120768 -22.180437 -2.4852395 0.17768964
-36.575645 -20.406832 0.32741758 -17.84612 0.2227921 -0.39135662 -35.294342 -19.243664
-32.102768 -51.540703 -0.6822056 0.87066674 -39.9914 -32.669678 -38.72433 -7.041836
-1.691178 2.540613 9.914961 -0.4111203 0.92649645 -2.890355 -2.970104 1.1021847
6.8391905 -0.06291862 0.44540238 -5.2699795 -2.4429972 -4.9191785 -3.2132497 5.302929
1.0906897 -5.3361692 -2.28657 -5.6386156 -0.23616087 0.27014184 -14.031645 -0.3990169
-8.470129 -1.5142177 0.58229077 -0.33606115 -3.637507 0.42068365 -6.5390153 -0.74231696
1.137869 0.413228 0.16261226 -0.2880029 -37.073112 -0.4435043 0.7445269 1.0535768
-0.98780453 -0.039623857 -2.6356223 -0.5878647 -4.0092516 -0.14861763 -0.3521247 -6.7846165
-1.4178993 -0.41191664 -2.3181329 -1.6294698 -0.43698597 -5.707727 -2.2290368 -3.4637942
-12.844353 -1.7410212 -0.42443687 -8.61189 -3.2819238 -7.5139546 -1.1288745 -0.1943336
-0.59825367 -3.422196 0.09953421 -4.065593 -2.7109363 1.0069306 -0.1305374 -3.25529
-31.670315 -0.023062333 -5.454133 0.77420497 -0.54723537 -12.887889 -0.340166 -0.20601013
-1.5800976 -2.5102544 -2.7020617 -0.22140694 1.3408072 -83.35219 -0.8340722 0.10668322

fc1.bias f4 [64]
00000000: 446a 41c0 1736 34be 25ec 43c0 06a2 243f
00000010: cecb ddc0 cb7d 6dc0 cd6b 1a40 2561 e8bf
00000020: 133d 99bf 3014 843e 28d3 9740 cd1f 2b40
00000030: adf1 2c40 4276 b5bd 0788 b640 5374 8a40
00000040: 3769 693e 7fca ee3d 5521 0c3f 77fd 2340
00000050: 9404 85c0 879b d6bd 4b0e 1240 502b 963f
00000060: 90e6 e03f b3ad de3f 00dc 4c3f 0c8d 55be
00000070: f1f4 0a40 9d71 fcc0 0efb 9ac0 2b5d b23d
00000080: 62ed e3be c833 083f d03c 3d3f 193a eec0
00000090: 24e3 0d3f dfb3 56c0 5bb3 0a3f 859b 1040
000000a0: 3016 0d40 b9ba 36bd 1aab 8cc0 71db eb40
000000b0: 6136 2240 94d0 ff3f 2754 72c0 8910 1540
000000c0: db99 863f 96f6 5240 ee64 9d3f 2cee de3f
000000d0: 5fbc 2ec1 0f05 8640 d2d0 34c1 a581 99c0
000000e0: 9d0c 793f 3970 d23e f3c3 0f40 06e7 153e
000000f0: af78 e83f dfd7 9140 05a0 663f 7425 df3f
-3.022111 -0.17598759 -3.061288 0.6430973 -6.9311285 -3.7108028 2.4128296 -1.8154646
-1.1971763 0.25796652 4.744526 2.673816 2.7022507 -0.088604465 5.704105 4.3266997
0.22794043 0.11659717 0.5473836 2.5623453 -4.156809 -0.10478883 2.2821224 1.1731968
1.7570362 1.7396759 0.80023193 -0.20854586 2.1712 -7.888869 -4.8431463 0.08709177
-0.44517046 0.5320401 0.7392092 -7.444592 0.55424714 -3.3547285 0.54179925 2.2594922
2.2044792 -0.044611666 -4.3958864 7.3705373 2.534569 1.9985528 -3.7863863 2.3291342
1.0515703 3.2963004 1.2296426 1.7416434 -10.920989 4.1881175 -11.3009815 -4.7970757
0.9728487 0.41101244 2.2463348 0.1463891 1.816183 4.5576015 0.9008792 1.7433305

fc2.weight f4 [32, 64]
00000000: d80f 83bf 66fe 093c a16e d1c1 681a e840
00000010: 7704 f0bf 393f c0bd b090 8fbd d93a a5c1
00000020: 157f 90c0 69ab 4b41 0178 e6c1 02b4 e6be
00000030: 7851 4d3f de19 883c bcfd 2e3e 84b3 fbc1
00000040: 7c25 3241 fa72 a83d 75d2 a540 88e0 6e3c
00000050: e12a 8fc1 efb5 62c1 cbc3 42be 51f5 803e
00000060: b14e a13c 1a24 883d db9c 2d40 d5bd 853c
00000070: e5cf 41be b35a 0bbd 21e5 bfc0 6fae a33b
00000080: 0bdf 60c1 3eda 8f40 f6ba 91be 675e 0f3e
00000090: d9ef af40 2801 9abc cc93 2540 c211 95c1
000000a0: 4c91 72bf 766d d13c cb06 65c1 6631 96c1
000000b0: 23d6 723f 001c 3a3f fe93 4c3e f38a 0d3f
000000c0: b12e 813e b796 4b3f 536c 213e f66f f83f
000000d0: 27d0 c6bf f13c 653e b7d1 0cc0 52b6 63c1
000000e0: 193d 5bbd db64 bb40 0ed4 52be 1143 8dc0
000000f0: d572 073f cdf8 eec1 9c23 8e3f ff6a c23f
00000100: d361 523d ec39 2ebe fbbb 2f3e 6f0b c1bf
00000110: e1c4 a5c0 e5b8 1dbe b2f2 24be 5fb3 873e
00000120: e537 bebf ad52 24bf 5eb0 7540 72b7 063c
00000130: b8c0 b8bf 73df 10bd 26d3 b1be 439a 5cbe
00000140: a3cd 35bf f4aa 4abe f449 d0c0 3405 69be
00000150: 88e7 cc3e ae8c 5a3f d859 08bf 7119 05be
00000160: 0fcb d7be dee4 8abf 762e 2ec0 b006 0bbe
00000170: 9aea 1fbe 617e 98be 216a a2c0 eab8 eabd
00000180: 055d 603f 9af6 533f 674a 70bf 8248 b7bd
00000190: 65be b1be f86f 64bd 479a 9fbf 3439 963f
000001a0: 2837 bd3e 553c a7be 94cf 283e 4a7d ee3f
000001b0: 033b b0bf 23e7 09c0 1c30 c9bd 5158 97bd
000001c0: 123f 03c0 2f3d 4ebf 1a64 90bf 3e7b cfc0
000001d0: 88ab 61c0 7fd2 0dbf ca72 d3bf 58af d1bc
000001e0: 1a0f 13c0 0df7 cb3d e93f c9be fce3 9f3f
000001f0: e0a3 aebf 45c9 5abf a414 1cbe 91df 93c0
00000200: 88f7 a0c0 a0f8 913d 1138 c6c1 40a9 0f41
00000210: e7f1 14c1 fadd 2abd 7789 763d 188d 9dc1
00000220: bbc9 28c0 100d 5241 04ab ddc1 c819 e53d
00000230: ddae 5bbf 60eb 223d 1ddf 833e bb2a d6c1
00000240: fedc 4d41 c8a8 60bd ad73 4040 ca31 913d
00000250: e03d a8c1 f4b6 0bc1 8d9b 9fbe f0f7 433f
00000260: 4e6f ed3e 9398 9ebb 2b31 1140 dcd8 133d
00000270: a6b3 b23e 6c86 51bc e25d 5ac1 9231 823e
00000280: 11b7 3cc1 1339 d740 ed8e a9be b4b6 893a
00000290: 455d f540 40d3 12bd 289e 3540 1651 45c1
000002a0: 6e28 6dc0 5ecc 3cba cc5a b8c1 dc18 7bc1
000002b0: 0991 9b3f 83d8 a43f 1272 f8bc 34df 083f
000002c0: cea9 af3e 71ac 713f 2e21 6e3c f12b 5240
000002d0: bb70 9cc0 8949 d13e 8524 efc0 fe63 b5c1
000002e0: 8d33 6ebe 34f8 b040 087c 6cbd cdf9 06c0
000002f0: 81ec 523e 95d4 cec1 7abc 753f b8c4 5640
00000300: 0376 0dbe b876 9abd 00a8 de3f c06d 2ec0
00000310: 5eca 62c0 549f 34bf 82d9 21c0 7ad9 c73f
00000320: 3a8c 593f d8c9 f4bf 6648 6340 ba5d 06c0
00000330: 7f25 a9c0 c52c 07bc 8d13 17c0 e18c 9540
00000340: cdd0 82bf 8fcf c2bf fd59 27c1 8a29 9ebf
00000350: 596b 35be fb58 e73d 489e 38c0 0afa cbc0
00000360: 94b5 85c0 e42f 2bc0 98f8 d1c0 a776 5abc
00000370: a633 90bf bb09 24bf 414b a7bd c4a0 95bc
00000380: 2705 6f40 418f 40c0 bdc0 c6c0 f421 38bf
00000390: 0461 53be 5953 d5be 5f78 74bf c9ec 983f
000003a0: 9c9c 13bd 43cd 06be cc9f 35be d264 e83f
000003b0: 3472 dac0 4f5b b5c0 854c 5dbf 6b61 0ac0
000003c0: a60a afc0 da53 53c0 2cd2 c1c0 7b2d 4ec1
000003d0: 374a bbc0 c9c2 93c0 b109 49c0 da60 ee3c
000003e0: 3c78 dfc0 9519 57c0 62f4 dfbf cee1 773f
000003f0: 50b9 42c0 0ab2 8040 81b3 ffbf bd12 38c1
-1.023921 0.00842247 -26.179018 7.2532234 -1.8751363 -0.09387059 -0.07010019 -20.653734
-4.515513 12.729348 -28.808596 -0.4505921 0.80202436 0.016613897 0.1708898 -31.462654
11.134151 0.08225055 5.1819406 0.0145799 -17.895937 -14.169417 -0.19020002 0.25187162
0.019690843 0.06647511 2.7126987 0.01632587 -0.18926962 -0.034022044 -5.99672 0.0049951593
-14.054454 4.495391 -0.28462952 0.14000855 5.4980283 -0.01879938 2.5871458 -18.63367
-0.94752955 0.02556489 -14.314158 -18.77412 0.94857997 0.72698975 0.1997833 0.55290145
0.25230935 0.7952685 0.15763979 1.9409168 -1.5532273 0.22386529 -2.2003 -14.232012
-0.053525064 5.8560615 -0.20588705 -4.414437 0.52909595 -29.871485 1.1104617 1.5188903
0.051362824 -0.17014283 0.17161553 -1.5081614 -5.180283 -0.15402563 -0.16108206 0.26504037
-1.4860808 -0.64188653 3.8388896 0.008222448 -1.4433813 -0.035369348 -0.34731406 -0.21543221
-0.710169 -0.19791776 -6.5090275 -0.22755891 0.40020394 0.8537091 -0.5326209 -0.12997986
-0.4214711 -1.0851095 -2.7215858 -0.1357677 -0.15616837 -0.2978392 -5.075455 -0.11461051
0.87641937 0.8279816 -0.9386353 -0.08949377 -0.34715572 -0.055770844 -1.2468957 1.1736207
0.36956143 -0.32663217 0.16485435 1.8631985 -1.3768009 -2.1547325 -0.09823629 -0.07389892
-2.0507245 -0.8056211 -1.1280549 -6.483794 -3.5260944 -0.55399317 -1.6519406 -0.025596306
-2.2977967 0.099592306 -0.39306572 1.249145 -1.3643761 -0.8546336 -0.15242249 -4.621041
-5.030216 0.071274996 -24.777376 8.978821 -9.309058 -0.0417156 0.06018969 -19.693893
-2.6373127 13.128189 -27.708504 0.11186558 -0.85813695 0.039775252 0.2575616 -26.770864
12.866453 -0.054848462 3.0070603 0.07089575 -21.030212 -8.732166 -0.31173363 0.765502
0.4637398 -0.0048399656 2.268626 0.036095485 0.34902686 -0.012788396 -13.647921 0.25428444
-11.794694 6.725717 -0.33116856 0.001050672 7.6676354 -0.035845995 2.837778 -12.332296
-3.7055926 -0.0007202084 -23.044334 -15.693569 1.2153636 1.2878574 -0.03032783 0.5346558
0.34309238 0.9440375 0.014534278 3.283932 -4.888761 0.40876415 -7.473208 -22.673824
-0.23261853 5.530298 -0.057735473 -2.1089966 0.20598032 -25.8538 0.9599072 3.3557568
-0.13814549 -0.07542175 1.739502 -2.7254486 -3.5436015 -0.70555615 -2.5289006 1.5613244
0.84979594 -1.9124098 3.5512938 -2.0994706 -5.285827 -0.00825042 -2.3605683 4.673447
-1.0219971 -1.5219592 -10.45947 -1.2356427 -0.17716731 0.112962686 -2.8846607 -6.3742723
-4.1784153 -2.674798 -6.561596 -0.013333953 -1.1265762 -0.6407735 -0.081686504 -0.018265136
3.7346895 -3.0087435 -6.2110276 -0.7192681 -0.20642477 -0.41665152 -0.9549617 1.1947261
-0.036038026 -0.13164239 -0.17736739 1.8155768 -6.826441 -5.667396 -0.86444885 -2.162196
-5.47005 -3.301993 -6.0569057 -12.886104 -5.8528094 -4.6175275 -3.1412165 0.029098917
-6.983427 -3.3609364 -1.7496455 0.96828926 -3.0425606 4.0217333 -1.9976655 -11.504575

fc2.bias f4 [32]
00000000: 0e90 afbf 76bf ffc0 d72b bbc0 be36 be3e
00000010: e024 93c0 9379 33c0 d01c a7bf b628 3abd
00000020: 4c01 1e3d 56d1 0cc0 a129 2ac0 6e11 ea3b
00000030: e814 b33d 4fe9 05bd 9742 45c0 a5b3 6ebf
00000040: 0afc 05c1 4e39 3cc0 bbae c0c0 f187 41c1
00000050: 7b1d c8be d112 afbf 5bfb 28bf ad92 353d
00000060: e877 4ebf e88d 81bf 56dd 95c1 8810 71bc
00000070: 0c23 0ec0 985d 58c0 63db d2bf 71f7 a2bf
-1.3715837 -7.9921217 -5.8491015 0.3715114 -4.5982513 -2.8042953 -1.3055668 -0.04544898
0.038575456 -2.2002769 -2.6587908 0.007143191 0.08744222 -0.032693204 -3.0821893 -0.93242866
-8.374033 -2.9409976 -6.0213294 -12.095689 -0.39084992 -1.3677617 -0.6600854 0.044329334
-0.8065171 -1.0121431 -18.733074 -0.014713414 -2.220889 -3.3807125 -1.6473202 -1.2731763

fc3.weight f4 [16, 32]
00000000: 568a 34bd 5d83 c9bc fa8e cfbd ade1 f7c1
00000010: 8580 bcbd fed0 06c1 b915 90bd f769 5e3d
00000020: 752a b2bc e740 4fbd eb0a e7bd 469d adbc
00000030: 0dd7 d63d a77a babc 415d ddbd d371 2dbc
00000040: 6fab dabd a3f5 bebc 5944 e5bd 3a4f 96be
00000050: 5f69 65bc 54ed 67bb d182 843c cfb3 073e
00000060: d6d3 c6bc e97b 58bb 6d26 f1be 84d8 843b
00000070: 1c2d c4bd 9363 6dbd af7e 32bd 5b1d 9dbd
00000080: 6ea5 42c1 e0af 86c0 5fb4 c9c0 67af 0ec0
00000090: e9f3 a0c0 67bd 93bf 1cd5 64c1 516c c3c0
000000a0: 69f6 77c1 c37f 07c1 9e96 b8c0 e33d c1c0
000000b0: fdcc 6ac0 cc6d 21c1 77ee cdc0 e927 0dc1
000000c0: c980 e6bf 1d8e 2fc0 8f90 1dc0 6500 ba3e
000000d0: 7645 aac1 b6dd 4ac1 83ba c0be 8c76 67c0
000000e0: b117 9ec1 7f27 35c1 254f 22c0 bc81 0cc1
000000f0: 3124 15c1 6bae 35c1 1a33 75c1 8162 23c1
00000100: 276c 52bd 1c8b 34c1 ffee bebc a6f7 e1be
00000110: 1701 babd 556d 81c1 5639 213d a484 b0c0
00000120: 1ad3 60c0 d9c5 d6bd c5be ab3c 25df f7c0
00000130: 8f93 4fc1 8b13 70c0 5a0c 0cbe 1380 5abd
00000140: 1a3a e0be ba80 68c1 5fc7 20be f2bc 89c0
00000150: cd14 87bd dd63 af3d 47cc d2c0 0e79 61c1
00000160: 63ad 01be 8cde 98be e928 87bf d861 59c0
00000170: 6882 47bd 1867 a23c 7a45 903d 0549 7c3d
00000180: 16fc 54be 5824 f6bf 0f80 1bbe d52e 91bf
00000190: 92d3 9dbd 492f 00c0 d894 6dbf 70fe b9bd
000001a0: 3a57 8abd 36ed d5bd 5ad9 a7bd b738 aebd
000001b0: 9fae c0bf 2dc0 c2bd e528 abbd 783d fabd
000001c0: 60ef e8bd 2ea3 b0bf 393c 80be 75ad 82be
000001d0: 3ff1 01bd 2f36 0bbe 9eaf 3dbf 1c14 d4bf
000001e0: cca4 883e 22ec cc3e 30eb 3bbf c6d7 3ebd
000001f0: a626 35be a5cf 15be 9f33 8abd fa7e 26be
00000200: 12c9 84bd 2ed1 c6bf 5920 17be 141f f1be
00000210: 996d d1bd 5854 a7bf bc00 cfbd 5099 e33e
00000220: 6528 2fbd 943c c3bd 4c22 69be 00de a4bd
00000230: c9aa e1bf 07bb c8bd 8ad9 fabd 1083 67bd
00000240: cc6c 4abe c7c9 0dc0 70a0 0bbe 6678 97be
00000250: 43aa d03b 1092 d83e 903d 46bf de04 a8bf
00000260: fba6 5dbd 2cb5 c6bc 0ae5 25bf 56c4 3ebc
00000270: 0362 26be 29d1 f7bd 7ff2 07be 7636 08be
00000280: 6d75 1cbf ffa7 32bf 718c 36c1 0f1c 47bf
00000290: 84b5 d8c0 af55 5cbe 0141 a6be 143a 87bd
000002a0: ff95 38bc 6320 20c0 b836 6cc0 3d6d 41bd
000002b0: d8e0 4fbf cb86 b3bd b73c bbc0 a4ae 6ebe
000002c0: 7b49 c6c0 fac0 91bd a38a 1dc1 bb32 8ec1
000002d0: 5bb9 33bd 32c8 fbbe b908 f5bd ce24 38bf
000002e0: 0cdf 19be c5c1 ffbe 2889 f2c0 98c6 3fbd
000002f0: 356a aabf 9fc6 bebf c89d 91be 617a 06bf
00000300: 253d 48c1 26a3 423d c67d 22c1 6c9b 343d
00000310: 901f 07c1 372a 333d d3b4 75c1 b2ed babf
00000320: 194e a1be a3b4 59c1 9c7b 36c1 588f 67c0
00000330: 34b1 9e3c f50a 4ec0 c12c 31c1 d527 39c1
00000340: 84b8 92c0 8952 8c3c b0b3 84c0 5789 0c3f
00000350: d11a 1ac1 4be3 54c1 eb2c 9c3c 065e 193d
00000360: 3fe2 19c1 f947 7bc1 73c8 99c0 e199 4ac0
00000370: 0a4c 3dc1 54ce 65c1 bde6 82c1 5d10 72c1
00000380: 0710 78be a686 d7c0 274e f9be cacb ebbf
00000390: fe71 513e eded 05c1 11f2 58bf bb2f 193e
000003a0: 70c9 48be 72ee 33bf 76c3 28be 0e7f a3bf
000003b0: 1517 1fc1 5a13 ddbe 521b 88bf d0a3 903c
000003c0: 41f4 32bf acb5 f9c0 df1e 6fbf 7bea 39be
000003d0: 9ee2 b0be 37c8 6fbe 7b80 e0c0 d3dc 03c1
000003e0: 1783 23be 42a9 9dbe b2d2 c1be 6c1c a0be
000003f0: a16d c03d f613 a0bd 0fcf 013d 0e3a cb3e
-0.04407724 -0.024598772 -0.101346925 -30.985193 -0.09204201 -8.4260235 -0.07035393 0.054300275
-0.02174876 -0.050599005 -0.11281379 -0.021193158 0.104902364 -0.022763563 -0.108088024 -0.01058622
-0.106772296 -0.023310488 -0.11194677 -0.2935732 -0.014002173 -0.0035389261 0.01617566 0.13252185
-0.024270933 -0.003303284 -0.4709963 0.004054131 -0.095789164 -0.05795629 -0.043577846 -0.07671615
-12.165388 -4.208969 -6.303268 -2.2294557 -5.029774 -1.1542176 -14.302029 -6.106972
-15.497659 -8.468692 -5.768386 -6.0388045 -3.6687615 -10.089306 -6.4353595 -8.822244
-1.8008052 -2.743049 -2.4619482 0.36328426 -21.283916 -12.679129 -0.37642297 -3.6166105
-19.761568 -11.322143 -2.5360806 -8.781673 -9.321336 -11.3550825 -15.324976 -10.211549
-0.051372673 -11.283962 -0.023307322 -0.44134253 -0.09082239 -16.178385 0.03936132 -5.5161915
-3.5128846 -0.10486955 0.02096499 -7.7459893 -12.973525 -3.7511928 -0.13676587 -0.053344797
-0.43794328 -14.531427 -0.15701054 -4.3043146 -0.06595764 0.08563969 -6.587436 -14.092054
-0.12663798 -0.2985729 -1.055936 -3.396597 -0.04870835 0.01982455 0.070445016 0.061593074
-0.20799288 -1.9229841 -0.15185569 -1.1342417 -0.077063695 -2.002886 -0.9280524 -0.09081733
-0.067549184 -0.10445635 -0.081957534 -0.08506911 -1.505329 -0.09509311 -0.083574094 -0.122187555
-0.11373782 -1.3799798 -0.25045946 -0.25522962 -0.03172421 -0.13594888 -0.74096096 -1.6568637
0.2668823 0.40023905 -0.7340574 -0.046592496 -0.17690524 -0.14629991 -0.06748127 -0.16259375
-0.064836636 -1.5532587 -0.14758433 -0.47094023 -0.10225982 -1.3072615 -0.10107562 0.44452906
-0.042763133 -0.09533039 -0.2276699 -0.08050156 -1.7630244 -0.09801298 -0.122485235 -0.056521475
-0.19768065 -2.2154405 -0.13635421 -0.29584044 0.006367953 0.42298937 -0.77437687 -1.3126485
-0.054114323 -0.024256311 -0.6480261 -0.01164349 -0.16248326 -0.12100441 -0.13276099 -0.13302025
-0.6111668 -0.6978759 -11.409287 -0.7777719 -6.7721577 -0.2151706 -0.3247147 -0.066028744
-0.011266231 -2.5019767 -3.6908398 -0.04722332 -0.8120246 -0.08765944 -5.8511615 -0.23308808
-6.19647 -0.071168855 -9.846347 -17.77477 -0.04387794 -0.49176174 -0.11964554 -0.7193116
-0.15026492 -0.49952522 -7.5792427 -0.046820253 -1.3313662 -1.4904364 -0.2844069 -0.52530485
-12.514928 0.04751887 -10.155706 0.044093534 -8.445206 0.04374143 -15.356647 -1.4603789
-0.31504896 -13.606601 -11.405178 -3.618124 0.019371606 -3.2194188 -11.073426 -11.572225
-4.585024 0.0171292 -4.1469345 0.54897064 -9.631547 -13.305491 0.019064387 0.037443183
-9.617736 -15.705071 -4.805719 -3.165642 -11.831064 -14.362873 -16.362665 -15.128995
-0.24224864 -6.7351866 -0.48692438 -1.8421566 0.20453641 -8.370587 -0.84744364 0.14959614
-0.19608092 -0.70285714 -0.16480812 -1.2773149 -9.943135 -0.43178827 -1.0633337 0.017656237
-0.6990395 -7.8034267 -0.9340648 -0.18155853 -0.34547895 -0.2341622 -7.0156837 -8.241412
-0.15967976 -0.30793196 -0.3785606 -0.31271684 0.0939591 -0.07816307 0.031691607 0.3969273

fc3.bias f4 [16]
00000000: 72e6 4041 196f 023f da21 653e cc53 8abc
00000010: 7327 99c0 a518 5440 e19b c03f c6f4 b2bc
00000020: 3856 153d 3f1a a6bb 56ab 2640 985c d540
00000030: 78c1 dfbb 9ce0 d7bc 0344 7dbd 256b 043e
12.056261 0.5095077 0.22376195 -0.01688566 -4.7860656 3.3140042 1.504757 -0.021845233
0.036459178 -0.0050690467 2.6042075 6.667553 -0.006828483 -0.02635222 -0.06183244 0.12931497

fc5.weight f4 [16, 16]
00000000: 627c 0e3c 638e 1e3f d0fe 85bf b6dc 2cc0
00000010: 46ea a2c0 a949 40be 3439 c73c 3e6b d4be
00000020: b744 f5bf 2d95 dcbf 6d68 813d d6ef 1dbe
00000030: 239a 43bf eb37 22bf ce76 a0bf 6cf5 62c0
00000040: 8c80 9e3c d325 373f 9935 8dbf 1a49 51c0
00000050: 7bc0 bcc0 4cd3 2bbe 61f0 013d aa7b 05c0
00000060: 9dcc 97be 890c 53c0 b0df 343d 1262 1abe
00000070: 1f82 32c0 4871 e4be 8346 02c0 6d60 67c0
00000080: b3a6 c7bd 14e5 efbe df72 9bbc d2d2 163d
00000090: 14cf 453d 362c 41be dcc1 c0c0 e199 9abd
000000a0: fec0 b4bb 3d40 783d 2339 07bf 543e cbbd
000000b0: c1e7 a43c de53 3ebd c93f adbc ec66 b83c
000000c0: 966c cabd 437e de3c 73c9 793c 5d56 7c3d
000000d0: 99d6 593d 5fd2 01be cce9 b8c0 1b5d a03c
000000e0: 4782 1c3d 518b b43d a05f edbd 67be edbd
000000f0: 466c 713d 0109 233d 49e7 893d 1ded 6a3c
00000100: e58f 153c 1373 2c3f bdaa 9bbf dd26 2ec0
00000110: ce6a a9c0 c1f9 32be 8645 343d a3c3 53bf
00000120: a79e 2bbf 85d7 5fc0 cad7 393c 16a6 15be
00000130: 98db f9be 713c dcbe 72c5 e0bf 1cfe 5bc0
00000140: 65f2 d2bd 92f3 453e 2d5a 77bc e169 593d
00000150: 3d78 013d db1d 1bbe 579d b4c0 6287 f13c
00000160: 8398 4d3b 8d13 843d a41c 84be 740b e3bd
00000170: be1f 633d 8d16 afbd bc8a 4a3d 8d5c aa3c
00000180: aeee c3bd fbac 13bf 97bf 043d 3d7d 573d
00000190: 0017 eb3c 11e8 04be 39b4 9ac0 7645 233d
000001a0: 1c86 663b 1c6e bc3b ce8e 01be ebf8 d2bd
000001b0: af25 013d a05e 04bd 4908 f63d 83cc b63c
000001c0: bed9 4abb 503c 333f ca95 b6bf c3f1 62c0
000001d0: 631c a5c0 fb78 48be 1623 303d 6ccc 4abf
000001e0: aeff 9abd 10ed 24c0 4d4e 5d3d e94f 0dbe
000001f0: 726a 01bf 4c00 33bf 0ec1 87bf fe6f 50c0
00000200: aa32 87be 58ae a73c e211 92be 7a14 b3bc
00000210: 374e b43c 21a0 2bbe 6329 9bbd 1852 e4bc
00000220: 0d94 4e3d 551a d9bd d7e0 50be 415b a8be
00000230: 9eee 3abe 744c 2cbe 4d20 4e3d 2822 1bbf
00000240: 43b9 c4bd f0b5 6cbe 2de0 823c 3e7e ac3d
00000250: f350 473d a4c4 0cbe 2964 a7c0 885d ed3d
00000260: 21af b03c 2607 573d baf8 2dbe f46e c5bd
00000270: 1cdb 40bc 1507 643e 6cb6 d53d d738 dc3c
00000280: e7c0 c5bd eeb9 3ebe 697b 3a3d 260c 2b3d
00000290: d1b9 113d feda b4bd d6ad e3c0 a575 bc3c
000002a0: 4af2 8abb 73ac f13c 21a5 5dbe ec1a bebd
000002b0: 054a 983d 1823 8bbd d883 f03d 3063 b43c
000002c0: ed2f a93c a821 173f 73d0 85bf 7203 8ac0
000002d0: 4891 a0c0 acde 47be e147 453d 8287 8fbf
000002e0: b96b 12be 59b8 a3bf d4df 083d 1e44 0ebe
000002f0: 2fff b9bf 221a b4bd f428 c5bf 8fbf 64c0
00000300: c1c3 aa3c 8d49 2e3f bf7d 90bf c21a 1dc0
00000310: 8b2e 7bc0 66f8 3dbe 217e f23c 5cd0 01c0
00000320: 9234 dcbf 9a1f 29c0 608b 433d dfdc 17be
00000330: c8f4 66bf 91d4 d2be 1319 81bf bc8a 5cc0
00000340: 4b7e ecbd 316a d8bf 00ab 163c 685c f73c
00000350: f193 d83b 9f75 f3bd 206d 87c0 1d3d f73c
00000360: 2a79 113d 8670 983c 69a8 35be 61d5 9ebd
00000370: a598 0e3c 691e 1a3d b929 de3d 2969 c23c
00000380: 9c6d d6bd 7ccf e4be 8e4d 063d b39f 553d
00000390: e4e4 483d 0557 f0bd c4c6 a1c0 769b 3a3d
000003a0: 10ca f53c 15c1 d4bb 709a 1fbe 2dca 03be
000003b0: 209d 113d 80dc cd3d b67d ca3d 83c0 313c
000003c0: 7d29 cebd 8e49 723e 13e7 103d 3f4e 053b
000003d0: 32a4 053d c5a1 cfbd 3c8e f4c0 ca90 73bc
000003e0: 11c7 c33d 9512 853d 70ab 47be 6a49 8fbd
000003f0: 9b56 a03d 3f61 a6bd 4358 c73d 83dd 3a3c
0.008696647 0.61936015 -1.0468388 -2.7009711 -5.091098 -0.18778099 0.024319269 -0.4148807
-1.9161595 -1.7233025 0.06318746 -0.15423521 -0.7640707 -0.63366574 -1.2536256 -3.5462294
0.019348405 0.7154209 -1.1031982 -3.2700868 -5.898496 -0.16779822 0.031723384 -2.0856729
-0.29648295 -3.29764 0.044158638 -0.15076473 -2.789192 -0.44617677 -2.0355537 -3.6152604
-0.09748592 -0.4685446 -0.018975673 0.036822148 0.04829319 -0.18864521 -6.0236645 -0.07548881
-0.0055161705 0.060608137 -0.5282156 -0.099239975 0.02013004 -0.0464667 -0.02114858 0.022510014
-0.098839924 0.027159816 0.015245783 0.0616058 0.053183172 -0.12677906 -5.7785397 0.019575646
0.03821018 0.08815635 -0.11590505 -0.11608582 0.05894115 0.03980351 0.06733567 0.014338759
0.009128545 0.6736309 -1.216148 -2.721122 -5.2942877 -0.17478086 0.044011615 -0.8272039
-0.6703896 -3.4975293 0.011342952 -0.14614138 -0.4880035 -0.43014863 -1.7560256 -3.4373846
-0.10300139 0.19331196 -0.015097183 0.05307949 0.03160881 -0.15148108 -5.6442065 0.0294835
0.0031371422 0.064490415 -0.258031 -0.11086169 0.055450194 -0.08549223 0.049448714 0.020796085
-0.09567009 -0.5768582 0.032409277 0.05260967 0.02869749 -0.12979151 -4.8345 0.039861165
0.003517515 0.0057504307 -0.12652132 -0.103013836 0.03153008 -0.032316804 0.12013299 0.022314316
-0.0030952538 0.70013905 -1.4264462 -3.546006 -5.159715 -0.195774 0.04300221 -0.79218173
-0.07568298 -2.5769691 0.05402975 -0.13800015 -0.5055305 -0.6992233 -1.0605791 -3.2568355
-0.2640584 0.020468876 -0.28529269 -0.02186035 0.022009952 -0.16760303 -0.07576253 -0.027871177
0.05043416 -0.106007256 -0.2039827 -0.3288212 -0.18255088 -0.1682604 0.050323773 -0.60598993
-0.09605648 -0.23116279 0.015976036 0.08422516 0.048661184 -0.13746887 -5.2309766 0.11590105
0.021567883 0.05249705 -0.16989413 -0.09640303 -0.01177099 0.22268327 0.10435185 0.026882572
-0.09655934 -0.18625614 0.04552785 0.041759633 0.0355776 -0.08830832 -7.11497 0.023005316
-0.004240309 0.029501176 -0.21645023 -0.09282479 0.07435993 -0.06793803 0.11743897 0.022019953
0.020652736 0.5903573 -1.0454239 -4.3129206 -5.0177345 -0.19518536 0.048164252 -1.1213229
-0.14298905 -1.2790633 0.033416584 -0.13893172 -1.4531001 -0.08794047 -1.5403123 -3.5741918
0.020845296 0.6808098 -1.1288375 -2.4547582 -3.9247158 -0.18551788 0.029601159 -2.0283422
-1.7203543 -2.6425538 0.04774034 -0.1483035 -0.90217257 -0.411778 -1.0085777 -3.4459677
-0.11547526 -1.6907407 0.009196043 0.03019543 0.006609433 -0.11887669 -4.232071 0.030180508
0.03551594 0.018608343 -0.17740025 -0.077555425 0.0087033855 0.037626658 0.10847802 0.023731785
-0.10470125 -0.44689548 0.032788806 0.052154254 0.049046412 -0.11735348 -5.0555134 0.045558415
0.030003577 -0.0064927437 -0.15586257 -0.12870093 0.035550237 0.10051823 0.09887259 0.010849121
-0.10066507 0.23660871 0.03537662 0.0020340828 0.032627292 -0.10138277 -7.6423626 -0.014866063
0.09559453 0.06497685 -0.19498992 -0.069964245 0.07829019 -0.08124017 0.097336315 0.011405352

fc5.bias f4 [16]
00000000: 51e0 1a40 52bd 1a40 f241 1b40 9504 1d40
00000010: 04f3 1b40 920a 1c40 17f3 1b40 d622 1f40
00000020: 0273 26bf 95f4 1c40 f905 1b40 defd 1b40
00000030: 178c 1c40 c3ef 1b40 b51f 1e40 e58c 1c40
2.4199412 2.4178052 2.4259 2.4534047 2.4367075 2.4381452 2.436712 2.4865012
-0.6501924 2.452428 2.4222395 2.4373698 2.4460504 2.436509 2.4706852 2.4460995

fc4.weight f4 [1, 16]
00000000: 802f 6cbd 58f7 87bd 772d 5e3d b57e 733d
00000010: b5fe 7abd 4a2d 5f3d 4bb4 5b3d 1180 91bd
00000020: 5e11 d23b b33f 643d 3f80 6f3d 4f0f 89bd
00000030: 9632 7ebd 9d43 803d 3f2d 6e3d 809c 5c3d
-0.057662487 -0.06638974 0.054242577 0.05944701 -0.061278064 0.05448655 0.053638738 -0.07104505
0.0064107617 0.05572481 0.058471914 -0.06692373 -0.06205996 0.06262896 0.05814862 0.053860188
